…
WARNING:tensorflow:From D:\Anaconda3\envs\fyp\lib\site-packages\keras\backend\tensorflow_backend.py:3445: calling dropout (from tensorflow.python.ops.nn_ops) with keep_prob is deprecated and will be removed in a future version.
Instructions for updating:
Please use `rate` instead of `keep_prob`. Rate should be set to `rate = 1 - keep_prob`.
Looking for previous weights...
No weights file detected, so starting from scratch.
 Available GPUs =  [] , count =  0
Summary of serial model (duplicated across 0 GPUs):
_________________________________________________________________
Layer (type)                 Output Shape              Param #
=================================================================
Input (Conv2D)               (None, 94, 428, 32)       2336
_________________________________________________________________
batch_normalization_1 (Batch (None, 94, 428, 32)       376
_________________________________________________________________
activation_1 (Activation)    (None, 94, 428, 32)       0
_________________________________________________________________
conv2d_1 (Conv2D)            (None, 92, 426, 32)       9248
_________________________________________________________________
activation_2 (Activation)    (None, 92, 426, 32)       0
_________________________________________________________________
max_pooling2d_1 (MaxPooling2 (None, 46, 213, 32)       0
_________________________________________________________________
dropout_1 (Dropout)          (None, 46, 213, 32)       0
_________________________________________________________________
conv2d_2 (Conv2D)            (None, 44, 211, 32)       9248
_________________________________________________________________
activation_3 (Activation)    (None, 44, 211, 32)       0
_________________________________________________________________
max_pooling2d_2 (MaxPooling2 (None, 22, 105, 32)       0
_________________________________________________________________
dropout_2 (Dropout)          (None, 22, 105, 32)       0
_________________________________________________________________
conv2d_3 (Conv2D)            (None, 20, 103, 32)       9248
_________________________________________________________________
activation_4 (Activation)    (None, 20, 103, 32)       0
_________________________________________________________________
max_pooling2d_3 (MaxPooling2 (None, 10, 51, 32)        0
_________________________________________________________________
dropout_3 (Dropout)          (None, 10, 51, 32)        0
_________________________________________________________________
flatten_1 (Flatten)          (None, 16320)             0
_________________________________________________________________
dense_1 (Dense)              (None, 128)               2089088
_________________________________________________________________
activation_5 (Activation)    (None, 128)               0
_________________________________________________________________
dropout_4 (Dropout)          (None, 128)               0
_________________________________________________________________
dense_2 (Dense)              (None, 9)                 1161
_________________________________________________________________
Output (Activation)          (None, 9)                 0
=================================================================
Total params: 2,120,705
Trainable params: 2,120,517
Non-trainable params: 188
_________________________________________________________________
WARNING:tensorflow:From D:\Anaconda3\envs\fyp\lib\site-packages\tensorflow\python\ops\math_ops.py:3066: to_int32 (from tensorflow.python.ops.math_ops) is deprecated and will be removed in a future version.
…
Weights file detected. Loading from  weights.hdf5
WARNING:tensorflow:From D:\Anaconda3\envs\fyp\lib\site-packages\tensorflow\python\ops\math_ops.py:3066: to_int32 (from tensorflow.python.ops.math_ops) is deprecated and will be removed in a future version.
Instructions for updating:
Use tf.cast instead.
 Available GPUs =  [] , count =  0
Summary of serial model (duplicated across 0 GPUs):
_________________________________________________________________
Layer (type)                 Output Shape              Param #
=================================================================
Input (Conv2D)               (None, 94, 428, 32)       2336
_________________________________________________________________
batch_normalization_1 (Batch (None, 94, 428, 32)       376
_________________________________________________________________
activation_1 (Activation)    (None, 94, 428, 32)       0
_________________________________________________________________
conv2d_1 (Conv2D)            (None, 92, 426, 32)       9248
_________________________________________________________________
activation_2 (Activation)    (None, 92, 426, 32)       0
_________________________________________________________________
max_pooling2d_1 (MaxPooling2 (None, 46, 213, 32)       0
_________________________________________________________________
dropout_1 (Dropout)          (None, 46, 213, 32)       0
_________________________________________________________________
conv2d_2 (Conv2D)            (None, 44, 211, 32)       9248
_________________________________________________________________
activation_3 (Activation)    (None, 44, 211, 32)       0
_________________________________________________________________
max_pooling2d_2 (MaxPooling2 (None, 22, 105, 32)       0
_________________________________________________________________
dropout_2 (Dropout)          (None, 22, 105, 32)       0
_________________________________________________________________
conv2d_3 (Conv2D)            (None, 20, 103, 32)       9248
_________________________________________________________________
activation_4 (Activation)    (None, 20, 103, 32)       0
_________________________________________________________________
max_pooling2d_3 (MaxPooling2 (None, 10, 51, 32)        0
_________________________________________________________________
dropout_3 (Dropout)          (None, 10, 51, 32)        0
_________________________________________________________________
flatten_1 (Flatten)          (None, 16320)             0
_________________________________________________________________
dense_1 (Dense)              (None, 128)               2089088
_________________________________________________________________
activation_5 (Activation)    (None, 128)               0
_________________________________________________________________
dropout_4 (Dropout)          (None, 128)               0
_________________________________________________________________
dense_2 (Dense)              (None, 9)                 1161
_________________________________________________________________
Output (Activation)          (None, 9)                 0
=================================================================
Total params: 2,120,705
Trainable params: 2,120,517
Non-trainable params: 188
_________________________________________________________________
_________________________________________________________________
Layer (type)                 Output Shape              Param #
=================================================================
Input (Conv2D)               (None, 94, 428, 32)       2336
_________________________________________________________________
batch_normalization_1 (Batch (None, 94, 428, 32)       376
_________________________________________________________________
activation_1 (Activation)    (None, 94, 428, 32)       0
_________________________________________________________________
conv2d_1 (Conv2D)            (None, 92, 426, 32)       9248
_________________________________________________________________
activation_2 (Activation)    (None, 92, 426, 32)       0
_________________________________________________________________
max_pooling2d_1 (MaxPooling2 (None, 46, 213, 32)       0
_________________________________________________________________
dropout_1 (Dropout)          (None, 46, 213, 32)       0
_________________________________________________________________
conv2d_2 (Conv2D)            (None, 44, 211, 32)       9248
_________________________________________________________________
activation_3 (Activation)    (None, 44, 211, 32)       0
_________________________________________________________________
max_pooling2d_2 (MaxPooling2 (None, 22, 105, 32)       0
_________________________________________________________________
dropout_2 (Dropout)          (None, 22, 105, 32)       0
_________________________________________________________________
conv2d_3 (Conv2D)            (None, 20, 103, 32)       9248
_________________________________________________________________
activation_4 (Activation)    (None, 20, 103, 32)       0
_________________________________________________________________
max_pooling2d_3 (MaxPooling2 (None, 10, 51, 32)        0
_________________________________________________________________
dropout_3 (Dropout)          (None, 10, 51, 32)        0
_________________________________________________________________
flatten_1 (Flatten)          (None, 16320)             0
_________________________________________________________________
dense_1 (Dense)              (None, 128)               2089088
_________________________________________________________________
activation_5 (Activation)    (None, 128)               0
_________________________________________________________________
dropout_4 (Dropout)          (None, 128)               0
_________________________________________________________________
dense_2 (Dense)              (None, 9)                 1161
_________________________________________________________________
Output (Activation)          (None, 9)                 0
=================================================================
Total params: 2,120,705
Trainable params: 2,120,517
Non-trainable params: 188
_________________________________________________________________
Running predict...
Counting mistakes
    Found 90 total mistakes out of 1120 attempts
      Mistakes by class:
          class 'ADL': 1
                   Preproc/Test/ADL/doorradio_d2_rand_1.wav.npz    : should be ADL but came out as rndy
…
