…
2019-12-05 13:47:01.130747: I tensorflow/core/common_runtime/process_util.cc:71] Creating new thread pool with default inter op setting: 12. Tune using inter_op_parallelism_threads for best performance.
Looking for previous weights...
No weights file detected, so starting from scratch.
 Available GPUs =  [] , count =  0
Summary of serial model (duplicated across 0 GPUs):
_________________________________________________________________
Layer (type)                 Output Shape              Param #   
=================================================================
Input (Conv2D)               (None, 96, 430, 32)       2336      
_________________________________________________________________
separable_conv2d_1 (Separabl (None, 48, 215, 40)       1608      
_________________________________________________________________
batch_normalization_1 (Batch (None, 48, 215, 40)       160       
_________________________________________________________________
separable_conv2d_2 (Separabl (None, 24, 108, 80)       4280      
_________________________________________________________________
batch_normalization_2 (Batch (None, 24, 108, 80)       320       
_________________________________________________________________
separable_conv2d_3 (Separabl (None, 12, 54, 112)       11072     
_________________________________________________________________
batch_normalization_3 (Batch (None, 12, 54, 112)       448       
_________________________________________________________________
max_pooling2d_1 (MaxPooling2 (None, 6, 27, 112)        0
_________________________________________________________________
activation_1 (Activation)    (None, 6, 27, 112)        0
_________________________________________________________________
batch_normalization_4 (Batch (None, 6, 27, 112)        448       
_________________________________________________________________
flatten_1 (Flatten)          (None, 18144)             0
_________________________________________________________________
dense_1 (Dense)              (None, 16)                290320    
_________________________________________________________________
activation_2 (Activation)    (None, 16)                0
_________________________________________________________________
dense_2 (Dense)              (None, 9)                 153
_________________________________________________________________
Output (Activation)          (None, 9)                 0
=================================================================
Total params: 311,145
Trainable params: 310,457
Non-trainable params: 688
_________________________________________________________________
WARNING:tensorflow:From D:\Anaconda3\envs\fyp\lib\site-packages\tensorflow\python\ops\math_ops.py:3066: to_int32 (from tensorflow.python.ops.math_ops) is deprecated and will be removed in a future version.
…
Weights file detected. Loading from  weights.hdf5
WARNING:tensorflow:From D:\Anaconda3\envs\fyp\lib\site-packages\tensorflow\python\ops\math_ops.py:3066: to_int32 (from tensorflow.python.ops.math_ops) is deprecated and will be removed in a future version.
Instructions for updating:
Use tf.cast instead.
 Available GPUs =  [] , count =  0
Summary of serial model (duplicated across 0 GPUs):
_________________________________________________________________
Layer (type)                 Output Shape              Param #
=================================================================
Input (Conv2D)               (None, 96, 430, 32)       2336
_________________________________________________________________
separable_conv2d_1 (Separabl (None, 48, 215, 40)       1608
_________________________________________________________________
batch_normalization_1 (Batch (None, 48, 215, 40)       160
_________________________________________________________________
separable_conv2d_2 (Separabl (None, 24, 108, 80)       4280
_________________________________________________________________
batch_normalization_2 (Batch (None, 24, 108, 80)       320
_________________________________________________________________
separable_conv2d_3 (Separabl (None, 12, 54, 112)       11072     
_________________________________________________________________
batch_normalization_3 (Batch (None, 12, 54, 112)       448
_________________________________________________________________
max_pooling2d_1 (MaxPooling2 (None, 6, 27, 112)        0
_________________________________________________________________
activation_1 (Activation)    (None, 6, 27, 112)        0
_________________________________________________________________
batch_normalization_4 (Batch (None, 6, 27, 112)        448
_________________________________________________________________
flatten_1 (Flatten)          (None, 18144)             0
_________________________________________________________________
dense_1 (Dense)              (None, 16)                290320
_________________________________________________________________
activation_2 (Activation)    (None, 16)                0
_________________________________________________________________
dense_2 (Dense)              (None, 9)                 153
_________________________________________________________________
Output (Activation)          (None, 9)                 0
=================================================================
Total params: 311,145
Trainable params: 310,457
Non-trainable params: 688
_________________________________________________________________
_________________________________________________________________
Layer (type)                 Output Shape              Param #
=================================================================
Input (Conv2D)               (None, 96, 430, 32)       2336
_________________________________________________________________
separable_conv2d_1 (Separabl (None, 48, 215, 40)       1608      
_________________________________________________________________
batch_normalization_1 (Batch (None, 48, 215, 40)       160
_________________________________________________________________
separable_conv2d_2 (Separabl (None, 24, 108, 80)       4280
_________________________________________________________________
batch_normalization_2 (Batch (None, 24, 108, 80)       320
_________________________________________________________________
separable_conv2d_3 (Separabl (None, 12, 54, 112)       11072
_________________________________________________________________
batch_normalization_3 (Batch (None, 12, 54, 112)       448
_________________________________________________________________
max_pooling2d_1 (MaxPooling2 (None, 6, 27, 112)        0
_________________________________________________________________
activation_1 (Activation)    (None, 6, 27, 112)        0
_________________________________________________________________
batch_normalization_4 (Batch (None, 6, 27, 112)        448
_________________________________________________________________
flatten_1 (Flatten)          (None, 18144)             0
_________________________________________________________________
dense_1 (Dense)              (None, 16)                290320
_________________________________________________________________
activation_2 (Activation)    (None, 16)                0
_________________________________________________________________
dense_2 (Dense)              (None, 9)                 153
_________________________________________________________________
Output (Activation)          (None, 9)                 0
=================================================================
Total params: 311,145
Trainable params: 310,457
Non-trainable params: 688
_________________________________________________________________
Running predict...
Counting mistakes
    Found 21 total mistakes out of 1120 attempts
      Mistakes by class:
          class 'ADL': 0
          class 'bag': 1
                   Preproc/Test/bag/bag_d4h50_rand_6_2.wav.npz      : should be bag but came out as book
…
