…
WARNING:tensorflow:From G:\Anaconda3\envs\fyp\lib\site-packages\keras\backend\tensorflow_backend.py:986: The name tf.assign_add is deprecated. Please use tf.compat.v1.assign_add instead.

WARNING:tensorflow:From G:\Anaconda3\envs\fyp\lib\site-packages\keras\backend\tensorflow_backend.py:973: The name tf.assign is deprecated. Please use tf.compat.v1.assign instead.

 Available GPUs =  [] , count =  0
Summary of serial model (duplicated across 0 GPUs):
_________________________________________________________________
Layer (type)                 Output Shape              Param #
=================================================================
Input (Conv2D)               (None, 96, 430, 32)       2336
_________________________________________________________________
separable_conv2d_1 (Separabl (None, 48, 215, 40)       1608      
_________________________________________________________________
batch_normalization_1 (Batch (None, 48, 215, 40)       160
_________________________________________________________________
separable_conv2d_2 (Separabl (None, 24, 108, 80)       4280
_________________________________________________________________
batch_normalization_2 (Batch (None, 24, 108, 80)       320
_________________________________________________________________
separable_conv2d_3 (Separabl (None, 12, 54, 112)       11072     
_________________________________________________________________
batch_normalization_3 (Batch (None, 12, 54, 112)       448
_________________________________________________________________
max_pooling2d_1 (MaxPooling2 (None, 6, 27, 112)        0
_________________________________________________________________
activation_1 (Activation)    (None, 6, 27, 112)        0
_________________________________________________________________
batch_normalization_4 (Batch (None, 6, 27, 112)        448
_________________________________________________________________
flatten_1 (Flatten)          (None, 18144)             0
_________________________________________________________________
dense_1 (Dense)              (None, 16)                290320
_________________________________________________________________
activation_2 (Activation)    (None, 16)                0
_________________________________________________________________
dense_2 (Dense)              (None, 9)                 153
_________________________________________________________________
Output (Activation)          (None, 9)                 0
=================================================================
Total params: 311,145
Trainable params: 310,457
Non-trainable params: 688
_________________________________________________________________
Train on 3584 samples, validate on 896 samples
Epoch 1/20
OMP: Info #212: KMP_AFFINITY: decoding x2APIC ids.
OMP: Info #213: KMP_AFFINITY: cpuid leaf 11 not supported - decoding legacy APIC ids.
…
WARNING:tensorflow:From G:\Anaconda3\envs\fyp\lib\site-packages\keras\backend\tensorflow_backend.py:986: The name tf.assign_add is deprecated. Please use tf.compat.v1.assign_add instead.

WARNING:tensorflow:From G:\Anaconda3\envs\fyp\lib\site-packages\keras\backend\tensorflow_backend.py:973: The name tf.assign is deprecated. Please use tf.compat.v1.assign instead.

 Available GPUs =  [] , count =  0
Summary of serial model (duplicated across 0 GPUs):
_________________________________________________________________
Layer (type)                 Output Shape              Param #
=================================================================
Input (Conv2D)               (None, 96, 430, 32)       2336
_________________________________________________________________
separable_conv2d_1 (Separabl (None, 48, 215, 40)       1608
_________________________________________________________________
batch_normalization_1 (Batch (None, 48, 215, 40)       160       
_________________________________________________________________
separable_conv2d_2 (Separabl (None, 24, 108, 80)       4280
_________________________________________________________________
batch_normalization_2 (Batch (None, 24, 108, 80)       320
_________________________________________________________________
separable_conv2d_3 (Separabl (None, 12, 54, 112)       11072
_________________________________________________________________
batch_normalization_3 (Batch (None, 12, 54, 112)       448
_________________________________________________________________
max_pooling2d_1 (MaxPooling2 (None, 6, 27, 112)        0
_________________________________________________________________
activation_1 (Activation)    (None, 6, 27, 112)        0
_________________________________________________________________
batch_normalization_4 (Batch (None, 6, 27, 112)        448
_________________________________________________________________
flatten_1 (Flatten)          (None, 18144)             0
_________________________________________________________________
dense_1 (Dense)              (None, 16)                290320
_________________________________________________________________
activation_2 (Activation)    (None, 16)                0
_________________________________________________________________
dense_2 (Dense)              (None, 9)                 153
_________________________________________________________________
Output (Activation)          (None, 9)                 0
=================================================================
Total params: 311,145
Trainable params: 310,457
Non-trainable params: 688
_________________________________________________________________
_________________________________________________________________
Layer (type)                 Output Shape              Param #
=================================================================
Input (Conv2D)               (None, 96, 430, 32)       2336
_________________________________________________________________
separable_conv2d_1 (Separabl (None, 48, 215, 40)       1608
_________________________________________________________________
batch_normalization_1 (Batch (None, 48, 215, 40)       160
_________________________________________________________________
separable_conv2d_2 (Separabl (None, 24, 108, 80)       4280
_________________________________________________________________
batch_normalization_2 (Batch (None, 24, 108, 80)       320
_________________________________________________________________
separable_conv2d_3 (Separabl (None, 12, 54, 112)       11072
_________________________________________________________________
batch_normalization_3 (Batch (None, 12, 54, 112)       448
_________________________________________________________________
max_pooling2d_1 (MaxPooling2 (None, 6, 27, 112)        0
_________________________________________________________________
activation_1 (Activation)    (None, 6, 27, 112)        0
_________________________________________________________________
batch_normalization_4 (Batch (None, 6, 27, 112)        448
_________________________________________________________________
flatten_1 (Flatten)          (None, 18144)             0
_________________________________________________________________
dense_1 (Dense)              (None, 16)                290320    
_________________________________________________________________
activation_2 (Activation)    (None, 16)                0
_________________________________________________________________
dense_2 (Dense)              (None, 9)                 153
_________________________________________________________________
Output (Activation)          (None, 9)                 0
=================================================================
Total params: 311,145
Trainable params: 310,457
Non-trainable params: 688
_________________________________________________________________
Running predict...
OMP: Info #212: KMP_AFFINITY: decoding x2APIC ids.
OMP: Info #213: KMP_AFFINITY: cpuid leaf 11 not supported - decoding legacy APIC ids.
OMP: Info #149: KMP_AFFINITY: Affinity capable, using global cpuid info
…
